BERTopic_models/september_hashtag_dataset_tests/paraphrase-multilingual-mpnet-base-v2_topic_model_60/topic_embeddings.safetensors (safetensors, 104536 bytes, 1 tensors)

topic_embeddings f4 [34, 768]
0	0xbcbe04ab	-0.023195585
1	0x3dc41a6c	0.09575352
2	0xbc6b0713	-0.014344948
3	0x3cd8931d	0.026437337
4	0xbc1e6e9d	-0.009669927
5	0xbc588a66	-0.0132165905
6	0x3c6b5a24	0.014364753
7	0xbc4147b4	-0.0117968805
8	0x3d9ee9e5	0.077594556
9	0x3d9c720f	0.076389425
10	0x3de7dff7	0.11322015
11	0x3dc0bc33	0.09410896
12	0xbd42369f	-0.047415372
13	0xbda6617f	-0.08124065
14	0x3c7f8406	0.015595442
15	0xbded674c	-0.11591968
16	0x3d0fad38	0.035077304
17	0x3d69d5f7	0.05708882
18	0xbcac15a3	-0.021006411
19	0x3cee9c34	0.029127218
20	0x3d37fd1f	0.04491913
21	0xbd16b818	-0.03679666
22	0x3d982a89	0.07429988
23	0x3cf2e1f6	0.029648762
24	0xba74ab11	-0.0009333352
25	0x3d34d908	0.04415229
26	0xbc35bc78	-0.011092298
27	0xbbba0a5f	-0.005677506
28	0x3dcc5e1e	0.09978889
29	0x3d018252	0.031618424
30	0x3d6cf72a	0.0578529
31	0xbb30efdb	-0.0026998434
32	0xbc9e4a81	-0.019322636
33	0x3d3353f8	0.04378125
34	0x3d54dd59	0.051968906
35	0x3d366cf5	0.044537503
36	0x3c779062	0.015110107
37	0x3d374b8f	0.044749793
38	0xbd0eded6	-0.03488048
39	0xbd164d5f	-0.03669488
40	0x3dd41310	0.103551984
41	0xbc100fc8	-0.008792825
42	0xbd6ddb5a	-0.058070518
43	0x3ce62759	0.028094934
44	0xbdde4977	-0.10853856
45	0xbce73967	-0.028225614
46	0xbc586db7	-0.013209752
47	0xbcb8bbeb	-0.022550544
48	0x3cb1d6ae	0.021708813
49	0xbc6289c3	-0.01382679
50	0x3ca3d762	0.020000163
51	0x3e2ce831	0.16885449
52	0xbcbb01fb	-0.022828093
53	0x3d020174	0.031739667
54	0x3d54acf6	0.05192276
55	0xbd7716e5	-0.06032457
56	0xbc948078	-0.018127665
57	0xbd89975f	-0.06718325
58	0xbb799bd4	-0.0038087266
59	0xbd131b03	-0.035914432
60	0x3c211e27	0.009833849
61	0x3d36c0e0	0.044617534
62	0x3c0966ec	0.008386355
63	0xbb2140ca	-0.0024605268
64	0xbdaa3980	-0.083117485
65	0xbc115a90	-0.008871689
66	0x3db517aa	0.08842404
67	0x3b90a074	0.0044136588
68	0xbd25533c	-0.04036258
69	0xbd85981d	-0.06523154
70	0x3d9a892c	0.07545695
71	0x3d8e35ea	0.06943877
72	0xbcc971f4	-0.02459047
73	0x3d8daf73	0.0691823
74	0xbd235fb7	-0.039886203
75	0x3d05b316	0.032641493
76	0x3d01f512	0.031727858
77	0xbdb3ee1a	-0.08785649
78	0xbd2afa92	-0.04174287
79	0x3d1f8aad	0.03895061
80	0x3ce37b8b	0.02776887
81	0x3cd13e4e	0.025542405
82	0xbd0fdf63	-0.035125148
83	0x3d645827	0.05574813
84	0xbdce314b	-0.10067996
85	0x3e06bc7d	0.1315784
86	0x3c356fec	0.011074048
87	0x3cbffe24	0.023436613
88	0xbd5db3bb	-0.054126482
89	0xba91181c	-0.0011069807
90	0x3b7e2e9c	0.0038785106
91	0xbd2630bd	-0.040573824
92	0x3c352d10	0.011058107
93	0xbd3bcd77	-0.045850243
94	0x3d783947	0.0606015
95	0xbc105db0	-0.008811399
96	0x3d399332	0.045306392
97	0x3d149fe3	0.036285292
98	0x3d8d922e	0.06912647
99	0x3c4c38f8	0.012464754
100	0xbce2800e	-0.027648952
101	0xbc1bea78	-0.009516351
102	0xbbbf7854	-0.0058432017
103	0x3d9719e4	0.07377985
104	0x3d87c4be	0.066293225
105	0xbca9a009	-0.020706194
106	0xbdc42d13	-0.0957891
107	0x3c9c9266	0.019112777
108	0xbc75c01c	-0.014999416
109	0xbd927bbb	-0.07152506
110	0x3de3f0a4	0.11129883
111	0x3d2499e0	0.04018581
112	0x3633a18b	2.676711e-06
113	0xbd9fc2c5	-0.07800821
114	0xbd5ce047	-0.053924825
115	0x3d05df83	0.03268386
116	0x3b97f2c2	0.0046370933
117	0x3d601a94	0.054712847
118	0x3c002966	0.00782237
119	0xbb46df3e	-0.0030345465
120	0xbc291429	-0.010319748
121	0x3d1c37e2	0.03813923
122	0xbd501329	-0.050799523
123	0xbd092dde	-0.033491008
124	0xbd202cb9	-0.03910515
125	0x3de53802	0.11192323
126	0xbd414a6a	-0.047190107
127	0x3d4270b1	0.047470752
128	0xbd14399a	-0.036187746
129	0x3dc2dcab	0.09514745
130	0xbcc6844e	-0.02423301
131	0xbc814303	-0.015779024
132	0x3cae7ecc	0.021300696
133	0xbc0d8a2b	-0.008638899
134	0x3d2e3b37	0.04253694
135	0x3cd439af	0.025906412
136	0x3cc1ad2c	0.023642145
137	0xbd193ade	-0.037409656
138	0x3dd517f9	0.10404963
139	0x3d25e589	0.040502105
140	0xbcdf48b5	-0.02725635
141	0x3a35aab1	0.0006930037
142	0x3c1febe0	0.009760827
143	0xbd1cd984	-0.038293377
144	0xbba1c65d	-0.004936977
145	0xbd451fc8	-0.048126012
146	0x3c92c2ce	0.017915156
147	0xbd671b14	-0.056422308
148	0x3c9c0444	0.019045003
149	0x3cad0954	0.021122612
150	0x3d86a109	0.06573684
151	0x3d560083	0.05224658
152	0xbc4efd09	-0.0126335705
153	0x3bb720bb	0.0055886186
154	0xbd5c6a28	-0.053812176
155	0x3d7d98d6	0.061913334
156	0xbd00d208	-0.0314503
157	0xbd7cef75	-0.0617518
158	0x3c0c0790	0.008546725
159	0xbd13afdc	-0.036056384
160	0xbcac8cb7	-0.021063192
161	0xbcdc44d6	-0.026888292
162	0xbd4a0fad	-0.049331356
163	0x3cf3aff9	0.029746996
164	0x3cc75731	0.024333568
165	0x3dcd6930	0.100298285
166	0xbc075ba4	-0.008261595
167	0x3c917e08	0.017760292
168	0x3ce7e6f9	0.028308379
169	0xbd2ce40d	-0.042209674
170	0x3d0d9af4	0.034571603
171	0x3cda5d8f	0.02665594
172	0x3c4a44f6	0.012345543
173	0x3ccdf6eb	0.025142154
174	0x3cd07688	0.025447145
175	0xbc80fe01	-0.015746119
176	0xbdc1f106	-0.094698
177	0xbdfda59c	-0.12385103
178	0xbd621140	-0.055192232
179	0xbc7e19f4	-0.015509117
180	0xbe04acc9	-0.12956537
181	0x3da7d4ae	0.08194862
182	0x3d5d7d70	0.054074705
183	0x3d2c0891	0.042000357
184	0x3b763769	0.0037569648
185	0x3bda9e30	0.0066716895
186	0x3cbd1231	0.023079963
187	0x3cd8518e	0.026406076
188	0xbc31adde	-0.010844676
189	0x3c8d8239	0.017274009
190	0x3cbbd4ae	0.022928562
191	0xbb820970	-0.00396841
192	0x3d4df383	0.05028106
193	0x3bc0c1be	0.005882471
194	0xbc417469	-0.0118075395
195	0xbcd9e165	-0.026596734
196	0x3cfe480c	0.031040214
197	0xbdab8cd1	-0.08376468
198	0x3d32fbc4	0.043697134
199	0x3d05a1a7	0.032624867
200	0xbd2888a7	-0.041145947
201	0xbdbb8f1a	-0.09158154
202	0xbd2b89b0	-0.041879356
203	0xbd7355c5	-0.059407968
204	0xbcb16c56	-0.021658104
205	0x3c91b069	0.017784314
206	0xbda92679	-0.08259291
207	0xbd7959c8	-0.060876638
208	0x3ddfd59f	0.10929417
209	0x3d6ee067	0.058319476
210	0x3e8eeb7a	0.2791403
211	0x3c36a49d	0.011147645
212	0xbd883de4	-0.0665243
213	0x3bdbcca5	0.006707745
214	0x3d2851f8	0.041093796
215	0x3d0fb06d	0.035080362
216	0x3c76de25	0.015067612
217	0x3d83b9e5	0.06431941
218	0xbcd569d5	-0.026051441
219	0x3dc04d36	0.09389727
220	0xbd71de81	-0.059050087
221	0xbcd56d4e	-0.026053097
222	0x3d19b46e	0.037525587
223	0xbcd78fb9	-0.02631365
224	0x3d85fad9	0.06541986
225	0x3d8caa6b	0.06868442
226	0xbcebc4f3	-0.028780436
227	0xbc0a031c	-0.008423593
228	0x3cf6d954	0.030132927
229	0xbc824be1	-0.015905323
230	0x3b4e6374	0.0031492384
231	0x3bfc1aa2	0.0076936046
232	0x3d8b8e79	0.06814284
233	0xbcf19a14	-0.029492415
234	0x3d913e71	0.07091988
235	0xbce70304	-0.02819968
236	0x3bd383db	0.0064549274
237	0x3d16cd67	0.03681698
238	0x3d8e1c79	0.069390245
239	0xbdeff8e4	-0.11717394
240	0x3961add1	0.00021522424
241	0x3ddbcb2f	0.107321136
242	0xbcd14154	-0.025543846
243	0x3cda7318	0.02666621
244	0x3da628de	0.081132635
245	0x3d0c3ffa	0.0342407
246	0xbd8abcd2	-0.06774296
247	0xbcaba403	-0.02095223
248	0x3c077c9d	0.008269456
249	0x3bf42518	0.007450711
250	0xbd101cbd	-0.035183657
251	0x3d32b82e	0.04363268
252	0x3c49cc66	0.012316799
253	0xbd8aa424	-0.067695886
254	0x3d6cfe5a	0.057859756
255	0x3d65a230	0.056062877
