BERTopic_models/september_hashtag_dataset_tests/paraphrase-multilingual-mpnet-base-v2_topic_model_50/topic_embeddings.safetensors (safetensors, 138328 bytes, 1 tensors)

topic_embeddings f4 [45, 768]
000000 c8 1c cf bc be 95 cb 3d 79 95 6c bc f2 6c c0 3c
       -0.025282279 0.099406704 -0.014439934 0.02348945
000010 05 a9 2c bc 81 78 54 bc 88 6b 7c 3c 2d f1 45 bc
       -0.010538344 -0.0129681835 0.015406497 -0.012081427
000020 98 7d a8 3d cb 47 a0 3d 81 c5 e9 3d c4 b6 bc 3d
       0.0822708 0.078261934 0.11414624 0.09214547
000030 ee 0e 41 bd 79 fb a6 bd 7b 5b 64 3c 19 78 e9 bd
       -0.04713338 -0.08153433 0.013937826 -0.1139986
000040 54 74 16 3d 60 c7 69 3d 01 1a af bc d4 3c e9 3c
       0.036732033 0.057074904 -0.021374704 0.028471388
000050 5d 6b 34 3d ef b9 16 bd d8 4c 9b 3d ff 12 01 3d
       0.044047702 -0.036798414 0.07583016 0.031512257
000060 60 34 02 ba 55 4a 3a 3d 82 34 77 bc 6a 27 f3 bb
       -0.0004966911 0.045481045 -0.015088202 -0.00742047
000070 c2 7d ca 3d c8 65 06 3d 6c 0e 78 3d 4c ab 41 ba
       0.09887268 0.03281191 0.06056063 -0.0007387891
000080 f8 fb a7 bc e4 db 32 3d 38 d2 51 3d 3d 5e 32 3d
       -0.02050589 0.043666735 0.05122587 0.043546904
000090 ce 2a 86 3c e4 c2 3d 3d 0c f6 0c bd 12 7b 28 bd
       0.016377833 0.04632844 -0.034414336 -0.041132994
0000a0 2e 79 d0 3d 73 59 51 bc 82 76 71 bd 12 73 e8 3c
       0.10179363 -0.012777674 -0.05895091 0.028375182
0000b0 0c 72 df bd e7 55 ed bc bf 8d 25 bc da fe be bc
       -0.109104246 -0.028971625 -0.010104596 -0.023314882
0000c0 9d 8a c3 3c 82 1f 8b bc 72 b6 a1 3c 5d 37 2c 3e
       0.023869807 -0.016982798 0.019740317 0.16817994
0000d0 05 a7 ac bc 77 52 01 3d 53 96 54 3d 64 3a 6e bd
       -0.021075735 0.031572785 0.051901173 -0.058161154
0000e0 a6 10 90 bc f2 43 8f bd 7f cd 1a bb eb a5 08 bd
       -0.017586064 -0.069953814 -0.002362102 -0.033361357
0000f0 5d 0f 1b 3c 53 1b 3b 3d f4 e6 00 3c dc 0e 37 bb
       0.009464112 0.045680355 0.0078675635 -0.002793244
000100 51 c0 ab bd 43 cd 20 bc cc 4a af 3d f8 51 49 3b
       -0.08386291 -0.009814563 0.08559188 0.0030719023
000110 e4 0a 23 bd cb cf 87 bd 61 f5 95 3d f1 1b 90 3d
       -0.039805308 -0.0663143 0.07322193 0.070365794
000120 65 28 d3 bc 37 4b 88 3d d4 76 25 bd 41 5c 0a 3d
       -0.025776098 0.06654971 -0.040396526 0.033779386
000130 c2 35 ed 3c b7 0b af bd ad bc 2f bd 4e e8 21 3d
       0.028956298 -0.08547156 -0.042904545 0.039528184
000140 4e cb fd 3c 70 09 c3 3c 9e f4 12 bd 5b bd 6d 3d
       0.030980732 0.023808211 -0.035877816 0.05804191
000150 22 05 cf bd c7 fe 06 3e ad c1 25 3c e7 ff c3 3c
       -0.10108401 0.13183127 0.010116977 0.023925735
000160 19 68 60 bd 43 e6 f6 3a cd d0 11 3c bd 0e 2c bd
       -0.054786775 0.0018836934 0.00889988 -0.042006243
000170 e2 27 34 3c 94 99 3a bd d0 9b 74 3d 3a dd ce bb
       0.010995837 -0.04555662 0.059718907 -0.0063129934
000180 a7 4c 46 3d 1c 6a 20 3d 2e 39 8e 3d 56 95 34 3c
       0.048412945 0.039163694 0.069445 0.011021933
000190 66 62 e5 bc d9 0a 17 bc 3b 83 c3 bb c2 26 9b 3d
       -0.028001022 -0.009218895 -0.0059665716 0.07575752
0001a0 05 cf 88 3d ae 39 a1 bc 11 8c c8 bd fc 11 98 3c
       0.06680111 -0.019680824 -0.097923405 0.018563263
0001b0 17 b2 8b bc be ea 98 bd dc 8e dd 3d 24 9e 2c 3d
       -0.017052693 -0.074666485 0.10818264 0.042143002
0001c0 f3 ff ba 3a b3 b2 a1 bd 12 af 76 bd 92 ec 20 3d
       0.0014266953 -0.07895412 -0.060225554 0.03928811
0001d0 c1 a5 b3 3b 3b 67 5b 3d b5 72 11 3c e5 4b f3 b8
       0.005482406 0.053565245 0.008877446 -0.000116012794
0001e0 f0 3a 63 bc 05 72 1f 3d 45 b1 46 bd 2d d0 02 bd
       -0.013869032 0.038927097 -0.0485089 -0.031936813
0001f0 c4 e1 18 bd 02 5a e8 3d 32 01 3f bd 12 6b 43 3d
       -0.037324682 0.11345293 -0.046632 0.047709532
000200 bc a6 23 bd ca 0c be 3d 42 f0 c4 bc 8a a3 63 bc
       -0.039953932 0.09279783 -0.024040345 -0.013893971
000210 d9 2b a6 3c 13 73 dd bb 53 1a 26 3d 8c f7 d0 3c
       0.02028458 -0.0067581027 0.04055245 0.025508665
000220 d1 b6 ca 3c af 3b 1a bd 16 f4 d8 3d 7f de 23 3d
       0.024745377 -0.037654575 0.10593431 0.04000711
000230 88 6a d5 bc 52 6f 0f bb af 96 56 3c ed 45 17 bd
       -0.026051775 -0.002188642 0.013097449 -0.03693192
000240 a8 91 fa bb 73 c3 43 bd 4f 16 87 3c 99 fb 67 bd
       -0.007646758 -0.047793817 0.01649013 -0.056636427
000250 bb 97 9d 3c 99 3e ab 3c 70 e8 81 3d 9e 32 42 3d
       0.01923739 0.020903872 0.06343162 0.047411554
000260 34 60 63 bc 56 05 8b 3b 09 39 56 bd e7 f3 85 3d
       -0.013877917 0.0042425795 -0.052300487 0.06540661
000270 6f 29 e9 bc 62 2e 78 bd 34 d2 33 3c 58 41 10 bd
       -0.02846214 -0.06059111 0.010975409 -0.035218567
000280 fd aa c2 bc f1 79 e9 bc 80 c8 3f bd 50 98 ed 3c
       -0.023763174 -0.028500529 -0.04682207 0.029003292
000290 df 81 cd 3c 71 49 d6 3d 5f f0 be ba f5 d8 9e 3c
       0.025086341 0.104632266 -0.0014567486 0.019390563
0002a0 7a 5c d9 3c b2 0f 32 bd ba 27 09 3d 75 1e d9 3c
       0.026533354 -0.043472 0.03348515 0.02650378
0002b0 84 08 59 3c 7e 39 fc 3c b6 57 cf 3c 03 10 64 bc
       0.013246659 0.030789133 0.025310379 -0.013919833
0002c0 0e cf c7 bd 35 36 f5 bd 90 99 67 bd ae 7b 5d bc
       -0.097562894 -0.1197323 -0.056542933 -0.013518257
0002d0 e7 70 07 be 7b 21 a0 3d bd 23 5b 3d d3 10 2e 3d
       -0.13226663 0.07818886 0.05350088 0.042496514
0002e0 db e8 9e 3b b0 38 bc 3b 0d d9 bc 3c c4 8c 01 3d
       0.004849536 0.0057440624 0.023052717 0.031628385
0002f0 cb 16 28 bc ea ad 78 3c b1 c8 b1 3c 9e 79 ef ba
       -0.0102593405 0.015178183 0.021702142 -0.0018270498
000300 0f a1 3e 3d 65 fd be 3b 48 49 52 bc fb b4 cd bc
       0.046540316 0.005828547 -0.012834854 -0.025110712
000310 a2 61 05 3d b9 82 ac bd bc 82 2a 3d ad ff ef 3c
       0.032563813 -0.08423371 0.041628584 0.02929672
000320 12 4e 25 bd 53 a8 b8 bd 0d fb 2b bd f8 78 7f bd
       -0.040357657 -0.0901648 -0.041987468 -0.062371224
000330 cb 54 c8 bc 42 5e 95 3c 7d 22 aa bd c4 0d 7a bd
       -0.024454495 0.018233422 -0.08307359 -0.061048284
000340 a9 91 d8 3d 76 60 68 3d 6d 90 8f 3e ee 36 38 3c
       0.105746575 0.056732617 0.28039876 0.011243565
000350 e9 3b 86 bd c3 02 df 3b bf e9 20 3d a9 3f 1d 3d
       -0.06554396 0.006805749 0.039285418 0.03839079
000360 d9 4e 7a 3c f8 8e 7f 3d 8f 1c c3 bc 89 ec ba 3d
       0.015277588 0.062392205 -0.023817329 0.09127147
000370 f4 4f 62 bd 11 08 dc bc 5b 05 16 3d bc b6 d8 bc
       -0.05525203 -0.026859315 0.0366262 -0.026454322
000380 c9 d8 85 3d 44 2d 96 3d 8b 43 f7 bc a3 5d 0d bc
       0.06535489 0.073328525 -0.030183574 -0.008628282
000390 80 72 ec 3c 54 3f 98 bc ad 41 77 3b 56 10 02 3c
       0.028863192 -0.018584885 0.0037728355 0.007938465
0003a0 db b4 86 3d c0 06 f5 bc 23 90 91 3d 1a b3 d5 bc
       0.06577464 -0.029910445 0.0710757 -0.026086379
0003b0 f9 6d c2 3b 1c 43 1f 3d d4 61 8b 3d 82 78 ec bd
       0.00593352 0.03888236 0.068057686 -0.115464225
0003c0 c7 71 83 3a de 14 de 3d c9 d5 d8 bc 60 87 ea 3c
       0.0010028415 0.10843824 -0.026469128 0.028629005
0003d0 cd 5f a5 3d d7 f7 0e 3d 4b 39 81 bd 55 dc a2 bc
       0.08074913 0.034904327 -0.06309756 -0.019880453
0003e0 c7 49 15 3c 01 c6 d0 3b 58 f5 19 bd 12 4c 2f 3d
       0.009111828 0.00637126 -0.037587494 0.042797156
0003f0 c9 01 34 3c c4 3e 89 bd 62 83 6f 3d 2e f3 5c 3d
       0.010986754 -0.06701425 0.058474906 0.05394285
