BERTopic_models/elections/paraphrase-multilingual-mpnet-base-v2_topic_model_20_reduced_outliers_updated_keywords/topic_embeddings.safetensors (safetensors, 181336 bytes, 1 tensors)

topic_embeddings f4 [59, 768]
0	0xbcbdb99f	-0.0231598
1	0x3c10f6eb	0.008847932
2	0xbc4d0ead	-0.012515706
3	0x3c24a390	0.010048762
4	0xbcc545b6	-0.024081092
5	0xbd4a4672	-0.049383588
6	0xbcc642c0	-0.02420175
7	0xbc487132	-0.012234019
8	0x3d949faf	0.0725702
9	0x3daa43f9	0.08313746
10	0x3e06b1ed	0.13153811
11	0x3d4bc366	0.049746893
12	0xbd1b5899	-0.03792629
13	0xbd4a6d7a	-0.04942081
14	0x3d1e83c6	0.038699888
15	0xbe338aca	-0.17533413
16	0x3d8db4fa	0.06919284
17	0x3d6372c5	0.055529375
18	0xbcd89636	-0.026438814
19	0x3d1b6906	0.037941955
20	0x3d81ad4d	0.063318826
21	0xbd47d7b3	-0.04878969
22	0x3d9e87af	0.07740723
23	0x3d3f1ff0	0.046661317
24	0xbc4a0768	-0.012330867
25	0x3d7cfee0	0.061766505
26	0xbd85ee80	-0.06539631
27	0xbc0df6bd	-0.008664784
28	0x3ddb63d4	0.107124
29	0x3caa4aed	0.02078768
30	0x3ce4cd43	0.027929908
31	0xbc209f82	-0.009803655
32	0xbbbf2049	-0.005832706
33	0x3c5b1f3f	0.013374149
34	0x3d118230	0.035524547
35	0x3d292d2b	0.04130284
36	0x3add6a7d	0.0016892698
37	0x3d21017a	0.03930805
38	0xbc727dcf	-0.014800503
39	0xbd13e73f	-0.036109205
40	0x3e261bdd	0.16221566
41	0xbc216fd1	-0.009853319
42	0xbd99d94a	-0.07512148
43	0x3cd3ba60	0.025845706
44	0xbdf8fee6	-0.12157993
45	0xbd3c7412	-0.04600913
46	0xbca41618	-0.020030066
47	0xbd686b8f	-0.0567432
48	0x3cc81a0c	0.024426483
49	0xbcb59795	-0.022167007
50	0xbb396516	-0.0028289012
51	0x3e312e6a	0.17302862
52	0xbd7229be	-0.05912184
53	0x3d2a4352	0.041568108
54	0x3daaf9b5	0.08348409
55	0xbdd68784	-0.10475066
56	0xbd08953a	-0.03334544
57	0xbded518b	-0.11587819
58	0x3d105f21	0.035246972
59	0xbd36c561	-0.04462183
60	0xbc8d577f	-0.017253635
61	0x3d2a684e	0.04160338
62	0x3ceec34a	0.029145855
63	0x3c105002	0.008808138
64	0xbd7593b5	-0.059955318
65	0xbc8aa81b	-0.016925862
66	0x3d90ed24	0.07076481
67	0xbd0b8ae0	-0.03406799
68	0xbd84e524	-0.064890176
69	0xbd8719a5	-0.06596688
70	0x3e2482a8	0.16065466
71	0x3d89ea99	0.06734199
72	0xbd165668	-0.036703497
73	0x3d884963	0.066546224
74	0xbce6ac97	-0.02815847
75	0x3da708a4	0.08155945
76	0x3cd209f6	0.025639515
77	0xbdd5274b	-0.10407885
78	0xbd00c310	-0.031436026
79	0x3c89490f	0.01675847
80	0x3d14ff9b	0.036376577
81	0x3d4628f7	0.04837891
82	0xbd186ca2	-0.037212975
83	0x3d6196f6	0.05507561
84	0xbdc4451e	-0.095834956
85	0x3e3ea13f	0.18616198
86	0x3bf089a4	0.007340627
87	0x3c929d31	0.01789722
88	0xbcca1ba6	-0.024671387
89	0xbb61b1ca	-0.0034438246
90	0x3b9e3c69	0.004828979
91	0xbd2a8f61	-0.041640643
92	0xba09fb7a	-0.0005263608
93	0xbd5ef0da	-0.054428913
94	0x3d6a40e0	0.057190776
95	0x3b836e31	0.0040109386
96	0x3d5c9be4	0.053859606
97	0x3bd851ac	0.006601533
98	0x3d7defa1	0.061996106
99	0x3ce7a6e6	0.028277826
100	0xbc9ed49d	-0.019388491
101	0xbcf60a69	-0.03003426
102	0xbce88db0	-0.028387874
103	0x3da6febe	0.08154057
104	0x3d9fea05	0.078083076
105	0x3c8c298f	0.01710966
106	0xbdc7a4b2	-0.0974821
107	0xbb2dcbcf	-0.0026519184
108	0xbcc1ed46	-0.023672711
109	0xbdf07189	-0.11740405
110	0x3defdb9f	0.11711811
111	0x3d293d26	0.04131808
112	0xbcef3512	-0.02920011
113	0xbdb8b5f4	-0.0901908
114	0xbd368464	-0.04455985
115	0x3cbe510e	0.02323201
116	0x3c8d7f12	0.017272506
117	0x3d4e2cc3	0.050335657
118	0x3c9a1730	0.018809885
119	0xb8ffd4ce	-0.000121989855
120	0x3ce65847	0.028118266
121	0x3d3c8de3	0.04603375
122	0xbcc90b64	-0.024541564
123	0xbd182326	-0.037142895
124	0xbd825a1d	-0.06364844
125	0x3ddf923f	0.10916566
126	0xbd4f6128	-0.050629765
127	0x3d5295b2	0.05141229
128	0xbd6fe07c	-0.058563694
129	0x3da90470	0.082527995
130	0xbcdb0859	-0.026737379
131	0xbb6b006b	-0.0035858403
132	0x3c2af579	0.010434502
133	0xbd4fc3b0	-0.05072373
134	0x3d859405	0.06522373
135	0x3d78bdd1	0.060727898
136	0x3c00d5d5	0.0078634815
137	0xbd7fc1ac	-0.06244056
138	0x3e09769d	0.13424154
139	0x3cb3d0fe	0.021950241
140	0xbd309aa1	-0.043116216
141	0xbc98344b	-0.018579623
142	0x3ce6a535	0.028154949
143	0xbd506539	-0.050877783
144	0xbc01ba69	-0.007917979
145	0xbd4a7404	-0.049427047
146	0x3d0821ee	0.033235483
147	0xbca29f10	-0.019851238
148	0x3cc4de5f	0.024031816
149	0x3d364394	0.04449804
150	0x3da69b05	0.081350364
151	0x3d495a50	0.049158394
152	0xbcb356f1	-0.021892043
153	0x3b6cfe0c	0.0036162166
154	0xbd9668fb	-0.07344242
155	0x3d2c7687	0.042105224
156	0xbc899834	-0.016796209
157	0xbd957ae2	-0.07298829
158	0xbcb7576a	-0.02238055
159	0xbd4fed14	-0.050763205
160	0xbce3c88d	-0.027805591
161	0xbd67d2e3	-0.0565976
162	0xbd516c32	-0.051128574
163	0x3d1e9c3e	0.038723223
164	0x3d1c2993	0.038125586
165	0x3dcac6c4	0.09901193
166	0xbc99508c	-0.018715166
167	0x3c818dd7	0.015814705
168	0x3d612812	0.054969855
169	0xbd82ccaf	-0.063866965
170	0x3cf53de9	0.029936748
171	0x3d20d5dd	0.039266456
172	0x3cf3f92f	0.029781906
173	0x3ce9b463	0.028528398
174	0x3d160450	0.036625206
175	0x3b0dc19f	0.00216303
176	0xbda2023c	-0.079105824
177	0xbe244821	-0.1604314
178	0xbd66c4a2	-0.056339867
179	0xbc6ecb1d	-0.014574793
180	0xbdc9e3b5	-0.09857885
181	0x3d75f67e	0.060049526
182	0x3d949813	0.07255568
183	0x3d6b5101	0.0574503
184	0x3c6e938a	0.014561543
185	0x3c828e11	0.015936883
186	0x3aeb1cf0	0.0017937701
187	0x3ca3bb79	0.019986855
188	0xbce56736	-0.028003316
189	0x3d090872	0.03345532
190	0x3d609afe	0.054835312
191	0x3caf5526	0.021402907
192	0x3dc1e9dd	0.09468434
193	0x3cf7904b	0.030220171
194	0xbc93566a	-0.017985541
195	0xbd709350	-0.05873424
196	0x3bc69550	0.00606028
197	0xbd8e609d	-0.06952021
198	0x3d2c6b96	0.04209479
199	0x3bfe0989	0.0077526015
200	0xbd084d34	-0.03327675
201	0xbdc7b859	-0.097519584
202	0xbcda4d0c	-0.026648067
203	0xbdbab637	-0.09116786
204	0xbcaa52a4	-0.02079136
205	0x3ceafd57	0.028685255
206	0xbd390f39	-0.045180533
207	0xbd4cf021	-0.050033692
208	0x3dc0ce58	0.09414357
209	0x3d2af5c6	0.041738294
210	0x3ea180b0	0.31543493
211	0x3c83eeb0	0.016105026
212	0xbd5330f7	-0.05156037
213	0x3c26ab7b	0.01017272
214	0x3d51a8f3	0.051186513
215	0x3c83c8b8	0.016086921
216	0x3ca4f9fa	0.02013873
217	0x3d8e6825	0.06953458
218	0xbd4bcce6	-0.049755953
219	0x3da3ecd7	0.08004158
220	0xbd680876	-0.056648694
221	0xbd0820aa	-0.033234276
222	0x3d60fe7b	0.05493019
223	0xbd6e5c15	-0.058193285
224	0x3daa4f9b	0.08315965
225	0x3dcec45b	0.100960456
226	0xbcd8a881	-0.026447536
227	0x3a5aaa0d	0.00083413796
228	0x3b66bf8c	0.0035209386
229	0x3c84ad34	0.016195871
230	0x3c8bac9a	0.017050076
231	0x3c9262ac	0.017869316
232	0x3d6b92eb	0.05751316
233	0xbd01c1b4	-0.03167887
234	0x3dc13ac0	0.09435034
235	0xbbae3169	-0.0053159487
236	0x3ca8b485	0.02059389
237	0x3bcfaf4a	0.0063380348
238	0x3d887869	0.066635914
239	0xbdf95f8b	-0.121764265
240	0x3c866ce8	0.016409352
241	0x3deb6f83	0.114958785
242	0xbd540cd8	-0.05177006
243	0x3c91186e	0.017711844
244	0x3d8c8267	0.0686081
245	0xbc946fd2	-0.018119726
246	0xbde527b9	-0.11189217
247	0xbc32edc4	-0.010920946
248	0x3cab79a4	0.020932026
249	0x3b2bf710	0.002623979
250	0xbd78e201	-0.06076241
251	0x3d12d998	0.035852045
252	0xbc5a6b03	-0.013331178
253	0xbd8d4773	-0.068983935
254	0x3dabe622	0.08393504
255	0x3d3b636d	0.045749117
