BERTopic_models/elections/paraphrase-multilingual-mpnet-base-v2_topic_model_10_reduced_outliers/topic_embeddings.safetensors (safetensors, 359512 bytes, 1 tensors)

topic_embeddings f4 [117, 768]
0	0xbcbd3e16	-0.023100894
1	0x3c2eb571	0.010663376
2	0xbc4c54c2	-0.01247138
3	0x3bfe5c5e	0.007762476
4	0xbcc4fc42	-0.024046067
5	0xbd3de73e	-0.046363108
6	0xbcc109da	-0.023564268
7	0xbc5d3d35	-0.013503362
8	0x3d9f5745	0.07780317
9	0x3da8abbd	0.082358815
10	0x3e0cd3a6	0.13752612
11	0x3d4ab4e1	0.049488906
12	0xbd20964f	-0.039205845
13	0xbd4c0b67	-0.04981556
14	0x3d127ad0	0.035761654
15	0xbe331f59	-0.17492427
16	0x3d8e3bdb	0.0694501
17	0x3d7318a6	0.05934968
18	0xbcdc8783	-0.026920086
19	0x3d1ce8db	0.038308006
20	0x3d833c3e	0.06407975
21	0xbd441f10	-0.047881186
22	0x3da4e14d	0.08050785
23	0x3d3f6d08	0.04673484
24	0xbc3e8dd0	-0.01163049
25	0x3d809f0b	0.06280335
26	0xbd77abfe	-0.06046676
27	0xbb8ae46f	-0.004238657
28	0x3de0a974	0.109698206
29	0x3ca5ab70	0.02022335
30	0x3d0fb77e	0.0350871
31	0xbbca7bbd	-0.0061793015
32	0xbbda5526	-0.0066629825
33	0x3c5ac3da	0.013352359
34	0x3d15a97e	0.036538593
35	0x3d31c2b2	0.043398567
36	0x3b8d669f	0.004315212
37	0x3d16bb5f	0.036799785
38	0xbca15eae	-0.019698467
39	0xbd094545	-0.033513326
40	0x3e272017	0.16320835
41	0xbc111efc	-0.008857485
42	0xbd98ae8a	-0.07455166
43	0x3ce214d5	0.027597824
44	0xbdf8d2e6	-0.12149601
45	0xbd1d7bf4	-0.03844829
46	0xbc861873	-0.01636908
47	0xbd67659d	-0.05649339
48	0x3d04a03f	0.032379385
49	0xbcdbce8e	-0.026831891
50	0xbb8c3d06	-0.0042797355
51	0x3e32f44b	0.17476003
52	0xbd805d59	-0.06267805
53	0x3d32b01a	0.043624975
54	0x3da63685	0.081158675
55	0xbdd1c415	-0.10242478
56	0xbcf9f53d	-0.030512447
57	0xbdeb4fea	-0.11489852
58	0x3d0d483f	0.034492727
59	0xbd380812	-0.04492957
60	0xbc77f8ec	-0.015135031
61	0x3d352f94	0.044234827
62	0x3ce910e0	0.02845043
63	0x3c17c720	0.009263784
64	0xbd7d6530	-0.061864078
65	0xbc851254	-0.016244091
66	0x3d9ce089	0.07660014
67	0xbd01f0ed	-0.031723905
68	0xbd84aba4	-0.0647805
69	0xbd8fd657	-0.07023304
70	0x3e28502e	0.16436836
71	0x3d8a8ef6	0.06765549
72	0xbd144a94	-0.036203936
73	0x3d823292	0.06357302
74	0xbd02ed00	-0.031964302
75	0x3da61286	0.08109002
76	0x3cee5365	0.0290925
77	0xbdd8bc1e	-0.105827555
78	0xbd045e0a	-0.032316245
79	0x3c798b74	0.015231002
80	0x3cf75d11	0.030195745
81	0x3d25f9cd	0.04052143
82	0xbd25cc68	-0.04047814
83	0x3d5c135c	0.0537294
84	0xbdc832bb	-0.09775301
85	0x3e385ea6	0.18004856
86	0x3b8ed50c	0.0043588933
87	0x3ca15278	0.019692644
88	0xbcea7329	-0.028619366
89	0xbba6a16c	-0.005085161
90	0x3bbf6f8d	0.0058421553
91	0xbd35ccf5	-0.044384915
92	0x393c981f	0.00017985747
93	0xbd71f4ef	-0.059071478
94	0x3d6b7c14	0.057491377
95	0x3bbaf548	0.0057055093
96	0x3d583140	0.052781343
97	0x3c2afa7e	0.010435699
98	0x3d813075	0.063080706
99	0x3d054e7c	0.03254555
100	0xbcb0fd98	-0.021605298
101	0xbcf7d466	-0.030252647
102	0xbcdd99c6	-0.027050864
103	0x3da8063a	0.082043126
104	0x3da61543	0.08109524
105	0x3c7118dc	0.0147154
106	0xbdc7797f	-0.097399704
107	0xbc03fd77	-0.008056036
108	0xbcfe496f	-0.031040875
109	0xbdeb2482	-0.11481573
110	0x3dee8291	0.11645997
111	0x3d260fd9	0.040542457
112	0xbd023eca	-0.03179816
113	0xbdb5f0f4	-0.08883849
114	0xbd42e0e6	-0.04757776
115	0x3cafe259	0.021470236
116	0x3c824b28	0.015904978
117	0x3d5e463f	0.05426621
118	0x3cc0b36c	0.023523055
119	0x39727598	0.00023122726
120	0x3cea9576	0.028635722
121	0x3d43368f	0.047659453
122	0xbcde804b	-0.027160784
123	0xbd071ac2	-0.032984503
124	0xbd869287	-0.065709166
125	0x3de65fd2	0.11248745
126	0xbd51ea66	-0.05124893
127	0x3d665663	0.05623473
128	0xbd765474	-0.060139135
129	0x3db43cb2	0.08800639
130	0xbcce4ffb	-0.025184622
131	0xbb238ac1	-0.002495453
132	0x3c1fc4ed	0.009751541
133	0xbd5500b3	-0.05200262
134	0x3d874ac6	0.06606059
135	0x3d504461	0.05084646
136	0x3bdca541	0.006733567
137	0xbd761766	-0.06008091
138	0x3e0a8b83	0.13529782
139	0x3caffda0	0.021483243
140	0xbd387d44	-0.045041338
141	0xbc6b38a6	-0.014356768
142	0x3cd46df2	0.025931332
143	0xbd5512e3	-0.052019965
144	0xbbfcb45e	-0.007711931
145	0xbd4bb711	-0.049735133
146	0x3cfb5df1	0.030684443
147	0xbce223a6	-0.02760489
148	0x3cc91ed9	0.024550842
149	0x3d2e9a5b	0.042627674
150	0x3d9a6a20	0.07539773
151	0x3d479096	0.048721872
152	0xbcc27877	-0.023739083
153	0x3b740fed	0.0037240938
154	0xbd9dbf47	-0.07702499
155	0x3d2fbffd	0.042907704
156	0xbc8d1e58	-0.017226383
157	0xbd960aeb	-0.07326301
158	0xbc8c93f7	-0.017160399
159	0xbd49d725	-0.049277443
160	0xbcf08768	-0.029361442
161	0xbd6f6520	-0.05844605
162	0xbd4133c2	-0.0471685
163	0x3d2512a2	0.040300973
164	0x3d095ff1	0.033538762
165	0x3dd4175a	0.103560165
166	0xbc9a6f77	-0.018851979
167	0x3c6609ba	0.014040405
168	0x3d45dd09	0.0483065
169	0xbd8facf8	-0.07015413
170	0x3d0c4ed6	0.03425487
171	0x3d16407c	0.03668259
172	0x3cd7d490	0.026346475
173	0x3ce3b08e	0.027794149
174	0x3d26f52c	0.040761158
175	0x3b1350ec	0.0022478653
176	0xbda7b966	-0.08189659
177	0xbe1d3868	-0.15353549
178	0xbd777ec9	-0.060423646
179	0xbc6cc1c1	-0.014450491
180	0xbde098ba	-0.1096663
181	0x3d7cf1de	0.0617541
182	0x3d97b077	0.07406705
183	0x3d74ec1d	0.059795488
184	0x3c85ecc4	0.01634825
185	0x3c5b6af6	0.013392201
186	0x3b992b6c	0.0046743657
187	0x3ca21e81	0.019789936
188	0xbcd70214	-0.026246108
189	0x3cf9fa74	0.030514933
190	0x3d633879	0.05547378
191	0x3ca93c2b	0.020658573
192	0x3dc447f7	0.09584039
193	0x3d0769f2	0.03306002
194	0xbc98c838	-0.01865016
195	0xbd6be9ea	-0.057596125
196	0x3bd58da7	0.0065171304
197	0xbd6dfa11	-0.05809981
198	0x3d21a494	0.039463595
199	0x3c116e46	0.008876389
200	0xbd09417d	-0.03350972
201	0xbdc57d59	-0.09643049
202	0xbcf50118	-0.029907748
203	0xbdb4c9a2	-0.08827521
204	0xbcb30931	-0.021854969
205	0x3ceb567b	0.02872776
206	0xbd46bf68	-0.048522383
207	0xbd584c6b	-0.052807253
208	0x3dc4dd0f	0.09612476
209	0x3d312a3a	0.04325316
210	0x3ea50a21	0.3223429
211	0x3c89b460	0.016809642
212	0xbd61d0b0	-0.05513066
213	0x3c20af2c	0.009807389
214	0x3d5836cf	0.052786645
215	0x3ca3ee7a	0.020011175
216	0x3cb04c7d	0.021520847
217	0x3d956d89	0.07296283
218	0xbd4617af	-0.04836243
219	0x3d9e511a	0.07730313
220	0xbd6c22f7	-0.057650533
221	0xbd06d393	-0.032916617
222	0x3d6f8e00	0.05848503
223	0xbd6a9a49	-0.057276044
224	0x3dac3200	0.08407974
225	0x3dd7a3c3	0.10529282
226	0xbced7046	-0.0289842
227	0xb91ba293	-0.00014842516
228	0x3b38c279	0.0028192087
229	0x3c3c1e69	0.01148186
230	0x3c7c3f82	0.015396001
231	0x3c9c5809	0.019084947
232	0x3d726820	0.059181333
233	0xbd04319e	-0.03227388
234	0x3db61ff0	0.0889281
235	0xbb966966	-0.004590201
236	0x3ca416f7	0.020030482
237	0x396e52ab	0.00022728245
238	0x3d88026f	0.06641089
239	0xbdf309e5	-0.118671216
240	0x3c40f4da	0.011777127
241	0x3de4853f	0.11158227
242	0xbd5d238e	-0.053988986
243	0x3c9559b2	0.018231247
244	0x3d8ec86f	0.069718234
245	0xbc9949d4	-0.018711962
246	0xbde074c8	-0.10959774
247	0xbc36b326	-0.011151111
248	0x3c961078	0.0183184
249	0x3b1e9ca0	0.0024202242
250	0xbd80ef10	-0.062955976
251	0x3d09743b	0.03355811
252	0xbc545dec	-0.012961846
253	0xbd8ceb03	-0.068807624
254	0x3db39f21	0.08770586
255	0x3d31bf79	0.043395493
