BERTopic_models/elections/paraphrase-multilingual-mpnet-base-v2_topic_model_30_reduced_outliers/topic_embeddings.safetensors (safetensors, 110680 bytes, 1 tensors)

topic_embeddings f4 [36, 768]
00000000: a529 c4bc 84ae 843c 01a4 4abc 879c 063c
00000010: 1b3c a5bc aec7 3fbd 8ec5 c2bc f5e7 43bc
00000020: 68df 973d a95d b13d 8e75 053e ddcf 4a3d
00000030: a138 25bd f595 20bd 2443 273d 66b7 30be
00000040: 0431 933d 310b 6e3d 681b efbc 1413 1f3d
00000050: 1d35 783d 1b5f 42bd 63d7 9c3d 0710 433d
00000060: 669a 61bc bd4e 7a3d 520a 7cbd f4b3 ddbb
00000070: ad08 d63d 31d4 9f3c fa25 cd3c b099 6bbc
00000080: 424c 27bc 9705 843c d884 133d dd97 2e3d
00000090: ac69 1eba 51c7 253d 3e74 90bc 1bf1 1bbd
000000a0: 6010 283e 6457 42bc 8056 9ebd 339f dd3c
000000b0: 7924 f7bd 19c3 3fbd 4dc2 89bc 0fcb 5cbd
000000c0: ad5f b43c c3b0 b3bc 588b 30bb c000 333e
000000d0: 01e2 73bd 436a 243d 0df6 af3d e77e dabd
000000e0: cc43 05bd 931d f6bd 6a09 ea3c 9728 39bd
000000f0: 927f 3dbc 3435 2a3d 37b4 e83c 2c79 0c3c
00000100: d852 7bbd 1760 67bc 45ac 993d fa57 04bd
00000110: 93ac 82bd e028 81bd 2dbb 243e c96b 8a3d
00000120: 91b6 07bd fe41 953d e67c f7bc 2baf a33d
00000130: 9e67 b13c 7d0e d2bd caa2 01bd 81af 863c
00000140: 5aa9 0f3d 53c6 4a3d fc3f 1abd 19ba 5d3d
00000150: 5404 babd b776 453e 4789 0d3c 1ab8 a53c
00000160: 39ae cebc 6630 cbbb 64c7 9bb9 da6f 2bbd
00000170: a7fe 0abb 5194 5cbd 69a8 603d b3c6 a43b
00000180: 06aa 5a3d 12bb 0e3c 6a6a 803d fece b83c
00000190: 7bea b8bc ebbf ddbc 78f6 9dbc 1c20 a43d
000001a0: 197d 993d ff35 4a3c 9402 cabd 2d6e 203a
000001b0: 07db d2bc 2912 e7bd 9b95 f43d 07b1 253d
000001c0: 7711 eebc 81f4 babd 57d2 40bd 9a8d 9a3c
000001d0: a77b 6c3c dbe4 593d baa1 953c 432d a83a
000001e0: cc73 043d d52a 413d 5133 bbbc 2c6a 10bd
000001f0: 94b4 82bd bd25 db3d d8b4 41bd fcd1 503d
00000200: 0d48 76bd 7673 a93d 49a7 00bd e117 4bbb
00000210: 670e 3e3c c1fb 3ebd 8e6b 853d d44e 7f3d
00000220: 28be fa3b b96f 82bd 2cca 0c3e a4b4 c83c
00000230: 1426 30bd c40c 8abc 5cea c93c 3242 4ebd
00000240: cff3 4abc 7d5c 47bd 9eac 093d 7309 b8bc
00000250: 998a c93c 4f75 303d ec02 b13d e659 413d
00000260: 6af4 c2bc ca28 8e3b a841 98bd 5ab7 233d
00000270: 7105 9dbc f29e 93bd a862 b7bc 110c 50bd
00000280: d6a6 d5bc 70c0 5dbd 8145 5fbd 2cbe 243d
00000290: 9ca5 203d 5b10 cb3d a9ed 9bbc 7e9f 673c
000002a0: 1fa5 593d c0a6 81bd 6bc5 eb3c f55f 093d
000002b0: 80ab fd3c 9cde dc3c 3ba2 193d f28c 913a
000002c0: fb5c a1bd a7b1 21be 93c0 75bd 790c 8dbc
000002d0: 12a2 c7bd 82e4 633d 760b 933d 0668 693d
000002e0: 33a0 853c 23f4 773c c27c 11b9 81b5 963c
000002f0: be28 d1bc 8019 0a3d 6c02 603d 1bfd 9d3c
00000300: 60e9 bf3d add9 e53c b09d 96bc d5c8 6dbd
00000310: 2564 863b 198e 85bd dc1f 353d b66a 203c
00000320: 9d2a 07bd 611f c8bd 322d fdbc dc77 bdbd
00000330: 55dd 98bc fea9 fc3c d8f1 4abd bdc6 51bd
00000340: 4d8b b33d 6cdf 3a3d 5bf0 9e3e 5293 883c
00000350: 1a64 5bbd 2a99 7a3c cd8c 583d a772 583c
00000360: b8b0 ae3c d370 8e3d 1e10 4ebd a00e a53d
00000370: 519f 6ebd b7c3 0dbd 1147 5d3d acd1 6fbd
00000380: 2e23 ac3d 0601 c83d d4dd e2bc 8594 40bb
00000390: 0470 a83b 5415 783c 6dc3 963c d499 a63c
000003a0: 4cee 763d fda2 05bd 6a55 bd3d e2b5 bcbb
000003b0: a3d6 9a3c a388 db3b 905c 863d e3f4 f7bd
000003c0: b682 8e3c f36f f63d f6e6 49bd 46b9 623c
000003d0: 1a38 9a3d c337 7fbc e3e8 e5bd 5dbd 56bc
000003e0: edb5 b13c c2eb 8a3b 05fe 6bbd 8595 143d
000003f0: f14f 47bc 233c 90bd 6e25 b13d 83d9 463d
-0.023945639 0.016196497 -0.012368203 0.00821603 -0.020170262 -0.04682129 -0.023775842 -0.011957158
0.07415658 0.086604424 0.13033125 0.04951464 -0.04033721 -0.03920551 0.040835515 -0.17257461
0.07187083 0.05811614 -0.029187873 0.038836554 0.060597528 -0.04745398 0.07658269 0.047622707
-0.013769722 0.061110247 -0.06153328 -0.006765837 0.104508735 0.01951036 0.025042523 -0.014379904
-0.010211052 0.016115947 0.03601536 0.042625297 -0.0006042968 0.040473286 -0.017633554 -0.038071733
0.16412497 -0.011861656 -0.07731342 0.027053451 -0.120675035 -0.04681692 -0.016816283 -0.05390459
0.022018278 -0.021934872 -0.0026938524 0.17480755 -0.059541706 0.0401404 0.08591852 -0.10668736
-0.03253536 -0.120173596 0.028568942 -0.045204725 -0.01156606 0.041554645 0.028406246 0.0085738115
-0.061358303 -0.014122031 0.07503561 -0.032310463 -0.06380572 -0.063066244 0.16087027 0.0675884
-0.033133093 0.07287978 -0.030210923 0.07992395 0.021655854 -0.1025667 -0.03164939 0.016441109
0.035073616 0.049505543 -0.037658677 0.054132555 -0.09082857 0.19283567 0.0086386865 0.020229388
-0.02522956 -0.006200838 -0.0002971246 -0.041854717 -0.0021208914 -0.053852383 0.05484811 0.0050285696
0.053384803 0.008711593 0.06270297 0.022559639 -0.022572747 -0.027069053 -0.019282565 0.08013937
0.074945636 0.012341975 -0.09863773 0.0006119933 -0.025739206 -0.11282761 0.119425975 0.04045203
-0.029061062 -0.09128667 -0.047075596 0.018866349 0.014433778 0.05319677 0.018265594 0.0012830872
0.032336995 0.04715999 -0.022851618 -0.035257503 -0.06382099 0.107005574 -0.047291607 0.050981507
-0.060127307 0.082739756 -0.031409536 -0.0030989575 0.0116001135 -0.04662681 0.06514655 0.062331036
0.007652063 -0.06368966 0.13748997 0.024500199 -0.043005064 -0.01685179 0.024647884 -0.050356098
-0.01238723 -0.048672188 0.033611886 -0.022465443 0.024602221 0.043080624 0.086431354 0.047204874
-0.023798186 0.0043383585 -0.07434398 0.03996978 -0.019167634 -0.07208051 -0.02238591 -0.050792757
-0.02608053 -0.0541386 -0.054509643 0.040220425 0.039220437 0.09915229 -0.019034224 0.014137147
0.053135987 -0.06330633 0.02878066 0.033538777 0.030965567 0.026961617 0.03750823 0.0011104627
-0.07879063 -0.15790425 -0.059998106 -0.017217861 -0.09747709 0.055637844 0.071799204 0.05698397
0.01631174 0.01513389 -0.00013874753 0.018397095 -0.025532123 0.033715725 0.05468981 0.01928573
0.093706846 0.028057897 -0.018385738 -0.058052856 0.0041012936 -0.065212436 0.044219837 0.009791067
-0.032999624 -0.0977161 -0.03090534 -0.09251377 -0.018660227 0.030842777 -0.049547046 -0.051214922
0.08766804 0.045623228 0.31042752 0.01667181 -0.05356226 0.015295306 0.052868653 0.013210929
0.0213245 0.06955113 -0.05030834 0.0805943 -0.058257405 -0.034610476 0.054022852 -0.058549568
0.084051475 0.0976582 -0.027693667 -0.00293854 0.0051403064 0.015141804 0.018403733 0.020337023
0.06028585 -0.03262614 0.09244807 -0.005758987 0.018901175 0.006699638 0.06560624 -0.12107255
0.017396312 0.12033071 -0.049292527 0.013838118 0.07530232 -0.0155772595 -0.1122606 -0.013106671
0.021693194 0.0042395303 -0.0576153 0.036275405 -0.012165056 -0.0704272 0.08649717 0.04854728
